model/model.pth (torch, 16787 bytes, 4 tensors)

linear1.weight f4 [256, 11]
000000 c4 cd 2e 3c 2f aa c8 3b bd 5b 88 3e ff 09 39 3e
       0.010669176 0.006123803 0.2663249 0.1807022
000010 d2 50 3b be 14 42 0e be f6 7a 6b be ce a1 21 bd
       -0.18292549 -0.13892394 -0.22996125 -0.03946095
000020 73 ed 55 bd 87 50 9f 3e 3e 47 8e 3e 41 2a 09 3d
       -0.052228402 0.31116125 0.27788728 0.033487562
000030 c9 5d 86 be 88 73 9d bc a0 39 09 bd e5 4e d1 bd
       -0.26243427 -0.019220129 -0.03350222 -0.10220126
000040 d1 e8 81 be 9c ab 4f be e6 78 2c be 86 e3 0e bd
       -0.25372937 -0.20280308 -0.16842994 -0.034884952
000050 4e 81 d5 3d ac c0 3a 3e 29 55 31 be bf 69 44 3e
       0.104250535 0.18237561 -0.17317642 0.19180964
000060 61 59 4f 3e 8c 37 bc 3d d2 17 84 be 22 37 15 3e
       0.20248939 0.09190282 -0.25799423 0.14571813
000070 62 9a 26 bd 87 27 a2 bd 19 ff b6 3d 02 b1 73 be
       -0.040674575 -0.079176955 0.08935375 -0.23797992
000080 30 db e7 3d ea b4 81 be aa 7f 24 be f2 2c 44 be
       0.113211036 -0.2533334 -0.16064325 -0.1915777
000090 10 11 ea bc 5c fd 1f be 0d 20 0e be 44 26 e9 bd
       -0.02857259 -0.15623993 -0.13879414 -0.11384252
0000a0 48 0b 2b 3d 69 3f 8f be a0 df 8c bc 99 6a 88 be
       0.041758806 -0.27978066 -0.017196476 -0.26643828
0000b0 97 df a6 3c d3 f8 5c be 29 d8 e9 3d e6 ed 42 bd
       0.020370288 -0.21579294 0.114181824 -0.04759016
0000c0 4d 9f 14 be 73 58 75 be 28 de 92 3e db 84 42 3e
       -0.14513893 -0.23959522 0.28685117 0.18995993
0000d0 3e dc 54 be a5 e5 2f be cc e4 89 bd 99 ff 83 be
       -0.2078714 -0.17177446 -0.06733093 -0.25780943
0000e0 e0 bc 6a bc fe d0 b3 bd a1 b0 30 be 38 aa 2f be
       -0.014327258 -0.087800965 -0.17254879 -0.17154777
0000f0 0b 26 81 bb 5b c1 cd 3d 2f 04 84 3e 80 1c bf bc
       -0.0039413027 0.10046645 0.25784442 -0.02332902
000100 00 1b 1c be 7e 98 88 bd 76 61 87 3e 6f 9a 02 be
       -0.15244675 -0.066697106 0.26441544 -0.12754224
000110 6e 9d 27 bd 44 78 a4 3d 93 f3 20 be d8 be 2d 3e
       -0.04092162 0.08030751 -0.15717916 0.16967332
000120 fe c7 85 bd 79 7e d6 bd 4a 29 1c 3e a5 7a 3f be
       -0.06532286 -0.104733415 0.15250126 -0.18699129
000130 cf c5 07 be 03 75 0c be ba 0a 91 3d 81 e0 d1 3d
       -0.13259052 -0.13716511 0.07082124 0.10247899
000140 cc cb 70 3e 15 bc 3e 3e 24 52 16 3e 0c e6 8f be
       0.23515242 0.18626435 0.14679772 -0.281052
000150 ea e6 81 bc 4a 5d 0a be 13 3f 87 be 53 a0 20 be
       -0.015857179 -0.1351215 -0.2641531 -0.15686159
000160 2a 11 b3 bd 31 68 31 3e 54 5a 1a 3e bd a9 06 bd
       -0.08743508 0.17324902 0.1507352 -0.03287672
000170 30 1d 1c bd 04 01 50 be d7 5f 00 bd 4a 76 4c bd
       -0.038113773 -0.20312887 -0.0313414 -0.049917497
000180 5e 81 89 be 88 8f 7d be 5e 26 3b 3e 21 a3 8b be
       -0.26856512 -0.24761784 0.18276355 -0.27272895
000190 ff 9e 88 be 0c 34 93 3d 7b 61 1a bd cc ed 86 3e
       -0.26683804 0.071876615 -0.03769062 0.263533
0001a0 96 33 1f bd 40 90 30 3e 64 e0 3e 3e 99 dc 82 be
       -0.038867556 0.17242527 0.18640286 -0.25558928
0001b0 34 17 55 be d4 4c 4a 3c 64 1b d0 3d d6 c4 67 be
       -0.20809633 0.012347419 0.10161474 -0.2263368
0001c0 98 87 64 3e 48 79 85 bd 28 f3 d6 bd 10 65 a7 bc
       0.2231735 -0.06517273 -0.10495597 -0.020433933
0001d0 f9 78 81 be f2 4a 64 be 54 08 22 be 70 5e 90 be
       -0.25287607 -0.22294214 -0.1582349 -0.2819705
0001e0 54 fb 0e be 68 76 47 3e ad 22 79 be e3 a9 5b 3d
       -0.13963062 0.19478762 -0.24329634 0.053628813
0001f0 59 a1 d6 bd af 87 24 be eb 94 10 3e f9 84 ab bd
       -0.104799934 -0.16067384 0.14119308 -0.08374972
000200 a4 a1 03 3e 14 c5 3a be 50 a0 78 3d a5 13 83 be
       0.1285463 -0.18239242 0.06069976 -0.25600925
000210 6a dc 1f 3e af fd 3e 3c c5 b8 09 bd 9d de 5a 3e
       0.15611425 0.011657163 -0.033623476 0.21373983
000220 3b 07 89 be 2a 84 6c be 8e f9 77 bd fd 24 0e 3e
       -0.2676333 -0.23097292 -0.06054073 0.13881297
000230 89 26 74 be ca 3b 3d 3c 18 fa 11 be df 50 54 3e
       -0.23842825 0.011549899 -0.1425556 0.20733975
000240 ea 95 50 be 28 1f 28 bd 02 18 18 be f1 bd 13 be
       -0.20369688 -0.041045338 -0.14852908 -0.14427926
000250 9d d1 68 be 90 94 07 be 59 70 91 bb b4 f9 7f 3c
       -0.22736211 -0.13240266 -0.0044384417 0.015623499
000260 a3 3d 4b be 3b 68 3a bd 99 22 87 3e 10 13 5c 3d
       -0.19847731 -0.04550956 0.26393583 0.053729117
000270 4e cd 75 3e 60 fb 82 3b fe 07 28 be 06 dd 51 be
       0.24004099 0.0039972514 -0.16409299 -0.2049447
000280 7a c9 56 be ae 0c 11 bd 7c 1e bc 3d 7d 47 52 3e
       -0.20975295 -0.035412483 0.09185502 0.20535083
000290 46 8c cb bd aa b6 92 3e 0f 83 11 be cb a5 8d be
       -0.099388644 0.28654987 -0.14210151 -0.27665552
0002a0 41 09 8f 3e 3e ee 1f be 72 74 28 3e 28 fc d9 3d
       0.27936748 -0.15618226 0.1645067 0.10643798
0002b0 04 f9 fc bd e0 26 3b be 3c e2 e1 bc 57 5f 4e 3e
       -0.123521835 -0.18276548 -0.027573697 0.20153557
0002c0 b4 bb 32 bd 6e 05 49 3e ce a3 25 3d a4 5f a9 3e
       -0.04363604 0.19630978 0.04043942 0.3308078
0002d0 10 c5 37 be 5c 6f a5 3c 6f 70 80 3e 1b 32 81 3e
       -0.17946267 0.020194702 0.2508578 0.2523354
0002e0 6b 39 80 3e ac d4 8d bc 0a 6a 93 3e 5e db 80 bd
       0.25043806 -0.017313324 0.2879184 -0.06291841
0002f0 da db 63 3e 37 a2 cb 3d 32 74 4c bd dd 15 b5 3d
       0.22251835 0.099430494 -0.0499155 0.08842061
000300 9e fc 7b be 42 50 05 be 91 95 9c 3e b4 39 d4 bc
       -0.24608085 -0.13018897 0.3058286 -0.025906421
000310 34 4d d6 bd d0 99 7f be 39 ae 37 3e bb 02 d8 3d
       -0.10463944 -0.24961019 0.17937554 0.10547396
000320 eb 4a 9b 3e f0 27 99 3d e6 b6 ca 3c 1f fe e3 bd
       0.30330595 0.074783206 0.024745416 -0.11132454
000330 7e 1f dc bd c8 07 42 3e 38 99 80 bd 8e 08 de 3c
       -0.10748194 0.18948281 -0.06279224 0.027103689
000340 7d 44 43 3d 05 4c 99 be 06 7d f0 3d 5a 9c ad 3d
       0.047672737 -0.2994081 0.11742596 0.08477087
000350 3b a8 1e 3e 62 b0 ac 3d 9e a5 75 be be c6 00 be
       0.15493862 0.0843208 -0.23988959 -0.12575814
000360 3d fc 85 3e da 3f 6a bd e4 bd c7 3d 0b eb 3b be
       0.26169005 -0.0571898 0.09753016 -0.1835138
000370 04 54 6f be 8e e3 b0 3d 17 67 49 3e 7c 1f ac 3d
       -0.23371893 0.086371526 0.19668232 0.08404443
000380 c7 bb 24 3e 88 ce 93 be 61 b6 80 be 0b 1c 8b 3e
       0.16087256 -0.28868508 -0.25139144 0.27169833
000390 bd e9 eb 3d 42 0c 41 3d f0 8f f9 3c 83 28 d0 bd
       0.115191914 0.04713083 0.030464143 -0.10163977
0003a0 c0 c8 37 3e 9a fc 1d be c2 a0 0d be 8d 1e 5a 3d
       0.17947674 -0.15428391 -0.13830855 0.05325179
0003b0 1d 02 1d be 63 64 86 be d0 76 4f 3e 3e 21 c0 bd
       -0.15332837 -0.26248464 0.20260167 -0.093813404
0003c0 39 65 cc bd 38 32 90 bd 57 3c 8b be 90 8c 05 bd
       -0.09980244 -0.070408285 -0.27194473 -0.032604754
0003d0 3a 37 64 3c ab f2 4e be 3b 38 55 3e 61 52 be 3d
       0.013929183 -0.20209758 0.20822231 0.09293056
0003e0 1a db 9b bc e8 03 e4 bd c7 0e c9 3d 9c 13 97 bd
       -0.019025374 -0.111335576 0.09817272 -0.07376787
0003f0 9b 74 15 3e 3c 96 dc bc 24 a7 fb 3d 11 51 12 3d
       0.14595263 -0.026927106 0.12287739 0.035721842

linear1.bias f4 [256]
000000 54 51 43 be b5 33 47 3e 12 fa 01 3e c8 73 0a bd
       -0.19073993 0.19453318 0.1269305 -0.033801824
000010 62 97 d2 bd c0 53 03 be 5d 50 2b 3e 62 84 8e 3e
       -0.1028278 -0.12824917 0.16729875 0.27835375
000020 ee 0c 93 be f6 21 14 3e 98 82 e5 3d 07 30 98 bc
       -0.28720802 0.1446608 0.112065494 -0.018577589
000030 82 ef b1 bd 45 b5 14 3d 06 18 0f be f0 58 75 bd
       -0.086882606 0.036305685 -0.13974008 -0.05989927
000040 2e e8 55 3e 6f 9c e6 3c 0b bf e4 3d 6c 73 47 be
       0.20889351 0.028150765 0.11169251 -0.19477624
000050 01 b4 96 3e 24 55 93 bc 1a c6 ef bc cc c4 13 3e
       0.29434207 -0.017984934 -0.029269267 0.14430541
000060 4d 8f 00 be af 23 69 3e 2c 64 ac 3c a2 9a 69 be
       -0.12554665 0.22767518 0.02104386 -0.22812894
000070 be bb 7e 3d 17 66 79 be 69 5d 0d be 0c d2 8d be
       0.062190764 -0.2435535 -0.13805164 -0.27699316
000080 e0 9f 04 3e a9 7f 98 3e ad 5f 23 3e 11 64 47 3e
       0.12951612 0.29784897 0.15954466 0.19471766
000090 fc 84 88 be 5f e0 a8 3c 85 19 7c be 51 41 88 3e
       -0.2666396 0.020614801 -0.2461911 0.26612332
0000a0 4a 44 f4 bd 32 3f 16 3e b6 33 70 be 6a e8 9f bd
       -0.119270876 0.14672545 -0.23457226 -0.07808001
0000b0 5f 2d 80 3e 93 55 f2 3d 5a af 67 3e 0e be 55 be
       0.25034615 0.11832728 0.22625485 -0.20873281
0000c0 88 61 4e be 49 86 50 be f1 dc 8c be b0 a8 01 be
       -0.20154393 -0.20363726 -0.27512315 -0.12662005
0000d0 1f c7 c4 bd 5e 45 38 be 92 1c 1a be 3f d3 2d 3d
       -0.09608292 -0.17995211 -0.15049961 0.042437788
0000e0 6d 12 46 3e fb 28 6d 3e c1 5f 98 bd 7f 3d 64 be
       0.19342966 0.23160164 -0.074401386 -0.22289084
0000f0 0e 59 6e be 90 26 4e 3e 49 8e 18 3e 36 b6 dd bd
       -0.23276159 0.20131898 0.14898027 -0.108257696
000100 de 3a 00 be b8 be 90 be a8 a8 8a be cc 69 4a 3d
       -0.12522456 -0.28270507 -0.270818 0.049417302
000110 48 f6 7d 3e 25 f3 47 bd 82 35 8f 3e 06 ba 8a be
       0.2480098 -0.048815865 0.2797051 -0.2709505
000120 80 b9 fa bd 40 47 49 3e 96 77 55 be c1 85 f8 bd
       -0.122424126 0.19656086 -0.208464 -0.121348865
000130 7a 70 af 3d 24 5f f1 bd 90 bd 7b bc ce 65 e5 3c
       0.08566375 -0.11785725 -0.015365019 0.028002646
000140 f9 cc 8e 3e a6 66 5a be c9 14 6e be e2 e7 d2 bd
       0.27890757 -0.2132822 -0.23250116 -0.102981344
000150 74 1a 29 be 11 8c 94 3e 2e ba 30 be bb 0d 39 bd
       -0.16513997 0.29013112 -0.17258522 -0.04517911
000160 7f 19 5b 3e 97 d1 09 3e 74 c2 b4 3c 8e 44 90 be
       0.21396445 0.13458858 0.022065379 -0.28177303
000170 cc a3 a5 3e df ea 86 be c8 b9 09 3d e4 cf 51 3e
       0.3235153 -0.26351067 0.03362444 0.2048946
000180 70 03 77 3e d7 87 81 3e 5b 03 92 3d 8c 61 9b 3e
       0.24122405 0.2529895 0.07129546 0.3034786
000190 f4 53 40 3d f0 d4 2e be c9 c1 27 be cd 2f 3d be
       0.046955064 -0.17073417 -0.16382517 -0.18475266
0001a0 5a 8e 35 be e0 6e aa 3e 61 7e 35 3e 2d 08 77 3e
       -0.17730084 0.33287716 0.17723991 0.24124213
0001b0 ce 01 9c 3e 2c 70 86 3c 43 18 18 be 13 0b 8c bd
       0.30470127 0.01641091 -0.14853005 -0.0683805
0001c0 e7 57 88 3e 88 74 91 be ab ef 0b be 50 31 74 bc
       0.26629564 -0.2840922 -0.13665645 -0.014904335
0001d0 95 70 03 3d 59 8e 9b 3c d4 4d 8e 3e 96 30 21 3e
       0.03208979 0.018988775 0.27793753 0.1574119
0001e0 ce 2a 6b be a5 ee 3a be f0 8a 7e bd f7 7e 9d bc
       -0.22965547 -0.18255098 -0.06214422 -0.01922558
0001f0 88 d2 b5 3d f0 85 e1 bc df 0a a8 3e aa 57 96 3e
       0.08878046 -0.027529687 0.32820794 0.29363757
000200 9e 77 10 3e 19 62 d4 3d a2 69 1a be 57 b0 06 3c
       0.1410813 0.10370273 -0.15079358 0.008220754
000210 1c 44 ce 3c 2f d4 bf 3c c2 48 6f 3e 49 cc 52 be
       0.025178961 0.023416607 0.23367599 -0.20585741
000220 b0 f2 09 bd 28 a9 86 be 89 11 98 be 68 7a 85 bd
       -0.03367871 -0.2630093 -0.29700878 -0.06517488
000230 1d ba 07 3c 77 52 af 3c e8 63 db 3d e8 42 96 3e
       0.008284119 0.021401627 0.10712415 0.2934792
000240 48 f2 6b 3d 28 5f 8f be dd 6c e4 3d bc 11 30 be
       0.057604104 -0.28002286 0.111535765 -0.17194265
000250 8e 93 7a 3d 80 f7 0c be cd 95 70 3d 99 b4 7b be
       0.061175875 -0.13766289 0.05873661 -0.24580611
000260 16 19 33 3e 85 20 9a 3c 19 e8 14 3e e9 af 8d 3e
       0.17490038 0.018814335 0.14541663 0.2767327
000270 f2 09 91 be e6 4e 10 be 9c ef 34 bc c7 be b5 3d
       -0.283279 -0.14092597 -0.011043455 0.088742785
000280 ad 25 b9 bd 30 e4 4c 3e 9c 25 91 3c 2b 3f a1 be
       -0.09040389 0.20008922 0.017718129 -0.31493506
000290 a6 3b 82 be 4b 89 6a 3e 47 d3 43 bd f0 dc 88 be
       -0.25436133 0.22903936 -0.04780891 -0.26731062
0002a0 64 23 ec bd 0b 7e 9b 3e f7 84 48 be d2 94 97 be
       -0.11530188 0.303696 -0.19581972 -0.29605728
0002b0 f3 6c 04 3e 74 12 79 bd 1e bf 20 be 26 90 33 3e
       0.12932186 -0.060808614 -0.15697905 0.17535457
0002c0 13 e9 df bd 1b 5a 19 3e ad 20 41 be 45 58 71 3e
       -0.10933127 0.14975779 -0.18860121 0.23568828
0002d0 82 b4 ad 3d 82 22 31 3e 7c c3 64 3e 14 5a 80 be
       0.08481695 0.1729832 0.22340196 -0.25068724
0002e0 87 12 8a be 25 46 9f 3d b3 66 8e be 6a fc 77 be
       -0.2696726 0.07777051 -0.27812728 -0.24217382
0002f0 3f 92 41 bc b6 e8 e0 3d 35 37 3a 3e 5a 82 c2 bd
       -0.011814653 0.10981886 0.18185122 -0.09497519
000300 2f b2 43 3d f1 83 22 be d8 a6 30 3e fa f1 b6 3d
       0.04777735 -0.15870644 0.17251146 0.08932872
000310 94 b0 b7 3d a2 2b 8f 3e 3b 9a 89 3e 3e ae 4d be
       0.089692265 0.27962977 0.2687548 -0.20086
000320 aa e6 1a 3e 1b fe 67 be 3c 9c 40 be 18 51 c1 3d
       0.15127054 -0.22655527 -0.18809599 0.094392955
000330 fa fc 57 3e aa 16 a1 3b ea 69 43 bd 26 f3 8d 3e
       0.21092597 0.004916032 -0.04770843 0.2772457
000340 90 40 33 be cc 44 fa bd 57 51 9a 3d 5d aa d6 3d
       -0.17505097 -0.12220153 0.075350456 0.10481713
000350 19 73 d6 3d 7c a7 3a be 8e 81 5a be 1f d2 eb 3d
       0.10471172 -0.18227953 -0.21338484 0.11514687
000360 d1 58 5d 3b 4b 2e 6e bc fd af 72 be 3d 79 4d 3e
       0.0033774863 -0.014537404 -0.23699947 0.2006578
000370 f4 be 56 be 98 90 34 3e f0 3f 14 3e 71 c2 19 be
       -0.2097128 0.17633283 0.14477515 -0.1501558
000380 3a d8 c7 bb 98 62 77 be ce d1 69 be 22 24 81 3d
       -0.0060987743 -0.24158704 -0.2283394 0.0630572
000390 93 0a e1 bd 3e d9 02 bd 49 7c 37 be 14 38 3d be
       -0.10988345 -0.03194546 -0.17918505 -0.18478423
0003a0 49 44 77 3d cf 33 91 3c 58 c6 8e bd 1e b1 a1 3e
       0.060367856 0.0177249 -0.06971425 0.31580442
0003b0 19 cd 52 3e 50 40 2a 3e 05 36 e7 3d ea f8 89 bd
       0.20586051 0.16626096 0.112896 -0.0673693
0003c0 f5 75 c5 bd 85 94 8e be 40 12 26 be fc 95 8a 3e
       -0.09641639 -0.27847686 -0.162179 0.27067554
0003d0 ee 04 44 3d 7d 4d 6b 3b 22 37 3e bd 72 e7 f8 bd
       0.047856264 0.003590434 -0.046439297 -0.1215352
0003e0 dd 37 5c bd 93 56 01 bd 49 51 77 be 4c 2a 3a bd
       -0.053764213 -0.031576704 -0.24152102 -0.045450494
0003f0 86 39 98 3e 9f 5f 86 be 8a 15 03 3e 32 15 fb bc
       0.29731387 -0.26244828 0.12801185 -0.030649755

linear2.weight f4 [3, 256]
000000 9a 8c 8b bc c7 cc 93 bd 98 bc ef bc 1e 96 13 bd
       -0.017034817 -0.072167926 -0.029264733 -0.036031835
000010 cb 0f 21 3b 0b 12 01 bd 12 19 26 bd d9 6f bd bc
       0.0024576064 -0.031511348 -0.040551253 -0.023124622
000020 2a 1f ec 3c 4f 0d 77 bd 78 89 55 bd 3a 77 62 bd
       0.028823454 -0.060315426 -0.052133054 -0.055289485
000030 af 09 31 3d f2 d9 4a 3b 70 fe cb bd 03 f1 f6 3b
       0.043222126 0.003095266 -0.099606395 0.007536055
000040 08 d6 4c bd 30 67 24 bd bf a6 ec 3c c2 22 bc 3b
       -0.050008804 -0.04013747 0.028888104 0.005741448
000050 17 51 48 3c e3 1a 1e 3d 2e 56 7c 3d 43 56 b4 3c
       0.012226365 0.03859986 0.061605625 0.022013789
000060 f4 1d 81 3c ce a8 5c bd 52 de f3 3c 84 e3 b2 bc
       0.015761353 -0.053871922 0.029769097 -0.021837004
000070 a0 e5 7a bd 6a f0 0a 3c 25 b1 48 bc 80 12 10 bb
       -0.061254144 0.008480171 -0.012249266 -0.0021983683
000080 8c f2 b1 b9 74 3d 2a bd c1 11 40 3d 75 2a 5c bd
       -0.00033940782 -0.041562513 0.04689193 -0.053751428
000090 a4 22 62 3a 1f c7 1c bc db e2 b4 bd e3 6c 3d bd
       0.00086263777 -0.009568959 -0.08832332 -0.04624642
0000a0 c7 46 81 3c b4 f4 9c bd d5 1a 81 bd 29 71 f9 bc
       0.01578082 -0.07663861 -0.06303946 -0.030449467
0000b0 17 f9 35 bd c4 e0 3e 3b 78 76 32 3d f0 2e 49 bc
       -0.044427004 0.002912567 0.04357001 -0.012279257
0000c0 b0 b9 9d bc c2 31 59 3d f0 83 95 3c e4 ea 7e 3b
       -0.019253582 0.05302597 0.01825139 0.003889733
0000d0 9f 63 23 bc dd 91 ab bc 1d 2a b4 bb 25 d9 00 bd
       -0.009972482 -0.020943576 -0.0054981844 -0.031457085
0000e0 18 ed 9e bc c4 90 22 bd 90 e4 5f 3d 00 ab 27 3d
       -0.019400164 -0.03968884 0.054661334 0.040934563
0000f0 10 24 98 bd 54 f7 0a 3d 69 94 21 bd 3c e0 13 bd
       -0.074287534 0.033927277 -0.039448176 -0.03610252
000100 e9 d8 7b bd 7c 91 62 bd ec be bf bd 90 7e 1a bc
       -0.06148616 -0.055314526 -0.09362587 -0.009429589
000110 7c b5 3c bb 82 f8 85 bd 16 4d 6d 3c 50 5e e2 bc
       -0.0028794697 -0.0654154 0.014483711 -0.027632862
000120 09 72 15 bd b0 87 6f 3c d4 8d ed bc 49 13 8e bd
       -0.036485706 0.014619753 -0.028998293 -0.06937272
000130 a8 bb d1 3c 0e 4e 0a bd f7 76 78 bd 67 0f 7b 3d
       0.025602177 -0.033765845 -0.06066033 0.061293986
000140 4d 24 c2 3b 60 b8 ac bc 8f f7 2f bd 5a 45 0f bd
       0.0059247375 -0.02108401 -0.0429607 -0.03497825
000150 9f ce 62 bc 45 2a 68 bd 50 66 95 3c 06 89 17 bd
       -0.013843208 -0.056680936 0.018237263 -0.03699591
000160 d0 c4 bc 3a ad 4c 37 3d ff d0 b3 3b ee ba 1f 3d
       0.0014401916 0.044750858 0.0054875608 0.03899663
000170 46 3b 5e 3d 37 4d 12 3d 66 46 2e bd 88 85 a3 bc
       0.054255746 0.03571817 -0.042547606 -0.019961134
000180 5e 53 10 3c a7 c0 3b 3d 84 76 10 bd 34 12 29 bd
       0.008808939 0.045838024 -0.035269275 -0.041277125
000190 4d 85 ca bc bf 3f bc 3c b8 70 73 bd da cb 49 bd
       -0.024721766 0.022979615 -0.05943367 -0.049266674
0001a0 f8 d5 6c 3c ba b7 ef bb b0 42 35 bd f2 4b ce 3c
       0.014455311 -0.007315603 -0.04425305 0.025182698
0001b0 d3 bc 01 3b 8f f3 0b bd 8a ce cb 3b 2a c5 42 bd
       0.0019796386 -0.034167822 0.0062196897 -0.04755131
0001c0 9c 51 12 3d 1c 84 63 3d ce 14 6c bd 66 ab 14 bd
       0.03572236 0.05554591 -0.05763703 -0.03629627
0001d0 ea 49 b4 3c 28 72 09 bd c3 ae 5f bd a2 49 38 bd
       0.022007901 -0.033556134 -0.054610025 -0.044992097
0001e0 ef ac 80 ba b6 63 88 bd ab 66 5d 3c 61 76 d2 3c
       -0.0009817163 -0.06659643 0.0135132475 0.025691213
0001f0 d4 18 b5 3b 3c 2b a9 bc 5e e7 11 bd 50 dc 5b bd
       0.0055266414 -0.020650499 -0.03562104 -0.053676903
000200 00 94 0e bd be d9 2b bd 78 33 2a 3a 54 28 9a 3d
       -0.034809113 -0.041955702 0.0006492655 0.07527223
000210 d3 9f 0e bd ab 13 cb bb ef 35 c8 bc cc a0 d5 bc
       -0.03482039 -0.006197413 -0.02443978 -0.02607765
000220 8a 3b 2f bc 1d 9c 48 3a 00 77 ee bc f7 a0 9e 3b
       -0.010695348 0.0007652657 -0.029109478 0.004840966
000230 00 18 36 bb 28 49 3f 3c 61 40 49 bd 46 0d 8f bd
       -0.0027785301 0.011675157 -0.049133662 -0.069849536
000240 ac b8 4b 3c 34 34 01 3d d9 7b 41 bd 7f 94 c3 bc
       0.012434166 0.031543925 -0.04723725 -0.02387452
000250 da 8c a5 3c bb af e9 3c 45 6f 0a bb ea 8c 92 3c
       0.020208765 0.028526178 -0.002112345 0.017889459
000260 4f 22 0d bd 76 0c 13 3d 04 7a 8f bc 19 76 69 3d
       -0.034456547 0.035900556 -0.017514236 0.056997392
000270 eb 60 84 3d af fc 00 bd a2 88 d1 3b 1d 68 e8 3b
       0.06463798 -0.031490978 0.0063944617 0.0070924894
000280 6a 4e 85 bd 72 3c 5f 3d 6a 85 d4 3c a9 1d 38 bb
       -0.06509097 0.054501005 0.025942523 -0.002809385
000290 b6 c4 40 bd a1 b5 b9 3c ec a6 87 bd 75 d7 e4 3c
       -0.0470626 0.022669615 -0.06623635 0.02793477
0002a0 d0 02 80 3b 72 0b b3 3b da 99 1a bd 2e 20 04 bc
       0.0039065853 0.005464011 -0.03774438 -0.008064313
0002b0 56 ce c7 bc a7 e0 04 bd f2 77 aa bc fb 5a 7a bb
       -0.02439038 -0.032440808 -0.020809148 -0.0038201201
0002c0 d6 23 96 bd a0 5b 45 3d 07 53 75 bd c3 a9 70 3d
       -0.07331054 0.048183084 -0.059893634 0.058755647
0002d0 7a 3f e1 3c 6b 6e be bc 1d 5c 7e bc bb c5 4b 3d
       0.027496088 -0.02324601 -0.015524891 0.049749117
0002e0 ca 8f 05 bd 90 43 89 ba 92 90 89 3c 0b 1c 2a bd
       -0.03260783 -0.0010472406 0.01679257 -0.04153065
0002f0 d3 05 eb 3c c1 b6 0d 3d 95 be 0e 3c fc 0a 50 3c
       0.0286893 0.034598116 0.0087124305 0.012697931
000300 00 bb 19 bd 31 1e b6 3b c3 b6 18 bb 49 9c 85 bd
       -0.037531853 0.0055577983 -0.0023302294 -0.0652395
000310 0b dc 8c 3d ca 2e e0 bc 67 e9 2a 3c 08 78 cd bb
       0.06877907 -0.02736606 0.010431624 -0.0062704124
000320 5a 5f a8 bc 4f 16 09 3c 38 c0 19 bd f4 ee a1 bd
       -0.02055328 0.008367135 -0.03753683 -0.07906905
000330 20 db 8f bc 7f a0 83 3c ac 76 f6 3c 7f 95 6d bc
       -0.017560542 0.016067741 0.030085884 -0.014500975
000340 d2 38 4a 3d f7 11 c9 bb f5 5c 3d bd e3 ea 1b 3d
       0.049370594 -0.006136175 -0.04623123 0.038065802
000350 18 85 83 3d 56 c3 9d 3c 0a fe 8a bc 9b 2d f2 bc
       0.0642187 0.019258182 -0.016966838 -0.029562762
000360 9d 88 9f bd 67 c7 a3 bd f5 63 7a bd c0 da 8b 3c
       -0.07789729 -0.07997017 -0.061130483 0.017072082
000370 0c dc 5d 3d c6 bd 22 3d 50 18 2b 3d 37 a1 80 3d
       0.05416493 0.039731763 0.041771233 0.06280749
000380 2b 82 71 bc c0 9e 6b bc 8b 0e 5b bd cf 52 c3 bc
       -0.014740507 -0.014381111 -0.053480666 -0.023843197
000390 74 8d 9e 3c 91 41 61 bb 12 7f bc 3c b5 f1 4a 3d
       0.01935456 -0.0034371356 0.02300981 0.049546916
0003a0 d1 5c 50 3d 34 7b 8b 3d 06 82 44 3c ea fb f9 bc
       0.050869767 0.068106085 0.011993891 -0.03051563
0003b0 4c c3 15 bc 90 bf 37 3d 0a 2f 19 3d 5c c0 5a 3d
       -0.009140801 0.044860423 0.037398376 0.053406104
0003c0 e3 44 3b bd b4 1a 01 3c bc 48 34 bd 6a be 44 bd
       -0.045719992 0.007879902 -0.044014677 -0.048033156
0003d0 83 3f a6 bc cf b1 27 bd c1 fd 5c bd a5 42 15 3d
       -0.020293957 -0.040941056 -0.053952936 0.03644051
0003e0 15 d4 d0 3b d4 f8 12 3b 5a e9 5f bd ad 9a 9a bc
       0.0063729384 0.0022426145 -0.0546659 -0.018872583
0003f0 f0 49 28 3d b2 50 c6 3c 17 31 79 bd 25 4c 42 bd
       0.041086137 0.0242084 -0.06083783 -0.0474359

linear2.bias f4 [3]
000000 3f 31 8f bd 15 bb 9b bd ac c0 13 bd
       -0.06991815 -0.076040424 -0.036072418
